TP1/models/best_model_MLP.pt (torch, 31458 bytes, 60 tensors)

gru1.weight_ih_l0 f4 [18, 5]
0	0xbdcca469	-0.09992296
1	0x3ea5ff5c	0.32421386
2	0x3ec3ef8e	0.38268703
3	0x3e72bd65	0.23705061
4	0x3e793bd0	0.24339223
5	0xbd528014	-0.051391676
6	0xbd2ba485	-0.041904945
7	0x3e0acf02	0.1355553
8	0x3e20164b	0.15633504
9	0x3e724be8	0.23661768
10	0x3d6eec9f	0.05833113
11	0xbecc67bb	-0.3992289
12	0x3d509e00	0.05093193
13	0x3e8fbcf5	0.2807385
14	0x3de8e1ab	0.11371168
15	0xbd2a81ad	-0.041627575
16	0x3c23adf7	0.009990207
17	0xbe58c3dd	-0.21168466
18	0x3e6266eb	0.22109573
19	0x3dcc17b8	0.099654615
20	0x3e1778e1	0.14792205
21	0xbda72b4d	-0.08162556
22	0xbd99221d	-0.0747721
23	0x3eb9521b	0.36195454
24	0x3eb0ded6	0.3454501
25	0x3e15067b	0.14553253
26	0x3e71bb6d	0.23606654
27	0x3e2ef9c6	0.17087469
28	0xbeb807f2	-0.35943562
29	0xbd9fec08	-0.07808691
30	0x3eb1e7e1	0.34747222
31	0xbeb7eec0	-0.3592434
32	0xbd249880	-0.040184498
33	0xbe4a4c14	-0.19755584
34	0x3d460ba7	0.048350956
35	0xbdd65bb0	-0.10466707
36	0x3e46f094	0.19427711
37	0xbecb605e	-0.3972196
38	0x3d576205	0.052583713
39	0xbec560cb	-0.3855041
40	0xbe1b19cf	-0.15146564
41	0x3d931e37	0.071834974
42	0x3e624a51	0.22098662
43	0xbeb671ad	-0.35633603
44	0x3e042b7b	0.12907211
45	0x3ebc3811	0.36761525
46	0xbe8a0d3f	-0.2696323
47	0xbe62c0ec	-0.22143906
48	0x3ec05c03	0.375702
49	0xbdf34ef5	-0.11880294
50	0x3eb0ae4d	0.3450798
51	0x3bd19973	0.0063964664
52	0xbe882d08	-0.26596856
53	0xbe98b72c	-0.2982725
54	0x3e65ec08	0.2245332
55	0xbe838f3d	-0.2569522
56	0xbcb1d92f	-0.021710007
57	0xbe7ed4fd	-0.24885936
58	0xbe2a1a04	-0.16611487
59	0x3e3599be	0.17734429
60	0x3e139769	0.14413227
61	0x3e0a6482	0.13514903
62	0xbd1542f4	-0.036440805
63	0x3e559992	0.20859364
64	0x3ed06d2d	0.40708295
65	0x3e08b16e	0.13348934
66	0xbc9fc4c0	-0.019502997
67	0x3ec74da4	0.38926423
68	0x3e9f5993	0.31123027
69	0xbe0e14da	-0.13875142
70	0x3dfdd0c6	0.12393336
71	0x3e40bd05	0.18822105
72	0x3c0a2f0f	0.008434071
73	0xbea2ea6c	-0.31819475
74	0x3d8a92d8	0.067662895
75	0xbe73086f	-0.23733686
76	0x3e0a8756	0.13528189
77	0xbebd477d	-0.36968604
78	0xbdd7a35a	-0.10529204
79	0x3e49fe25	0.19725855
80	0xbbd3fb52	-0.0064691687
81	0xbeaf75f2	-0.34269673
82	0x3e95ebde	0.29281515
83	0x3e800a71	0.25007966
84	0x3ea3c873	0.31988868
85	0x3ecc1e64	0.39866936
86	0xbe6fd64e	-0.23421595
87	0xbe195394	-0.14973289
88	0xbeb1e7dd	-0.3474721
89	0xbe2f3e42	-0.17113593

gru1.weight_hh_l0 f4 [18, 6]
0	0x3ea72f11	0.32653096
1	0xbe8970fd	-0.26844016
2	0xbeb43114	-0.35193694
3	0x3e9a35f3	0.30119285
4	0x3e2d7a70	0.16941237
5	0xbeb66bb2	-0.3562904
6	0xbeae82d6	-0.34084195
7	0xbda1188e	-0.078660116
8	0x3d0626b7	0.032751765
9	0xbecab7fb	-0.3959349
10	0x3dbdb2a4	0.092625886
11	0xbe74e78c	-0.23916453
12	0xbe16de0d	-0.14733143
13	0xbd2a36cb	-0.04155616
14	0x3d3af066	0.045639418
15	0xbecd0a5e	-0.40046972
16	0x3e29c920	0.1658063
17	0x3e7104ac	0.23536938
18	0xbebf806a	-0.3740266
19	0xbece4745	-0.4028875
20	0x3e984232	0.29738003
21	0xbe8d5413	-0.27603206
22	0xbe8b4aec	-0.27205598
23	0x3e8e6621	0.27812293
24	0x3e56a135	0.20959933
25	0x3de7a35e	0.11310457
26	0x3d725909	0.05916694
27	0x3e809263	0.25111684
28	0x3e8a410e	0.27002758
29	0x3e8e422e	0.27784866
30	0xbea3e7b4	-0.32012713
31	0xbc0e6310	-0.0086906105
32	0xbeb6f865	-0.35736385
33	0x3ea6e582	0.32596976
34	0x3e386de7	0.18010674
35	0xbe94b13d	-0.29041472
36	0xbea110a7	-0.31458017
37	0xbe978d11	-0.29599813
38	0xbebf2c97	-0.37338707
39	0x3ecf6312	0.40505272
40	0xbbb638e7	-0.0055609825
41	0x3d83ce49	0.0643583
42	0x3e920ed0	0.28526926
43	0x3dabcc83	0.08388617
44	0xbe00d7d9	-0.1258234
45	0x3d847083	0.064667724
46	0xbeb24f4d	-0.34826127
47	0xbea613d7	-0.32437012
48	0x3ebc5ac8	0.3678801
49	0xbd69f5b3	-0.057119083
50	0x3e810185	0.25196472
51	0x3d51a07f	0.05117845
52	0x3e8a6531	0.27030328
53	0xbe5ac2f7	-0.21363436
54	0x3e8f3d59	0.27976492
55	0x3d782eaa	0.060591377
56	0x3eab9c36	0.33517617
57	0xbec046c2	-0.37553984
58	0x3e9e26dd	0.30889025
59	0x3d0ea9be	0.034829848
60	0x3df4a947	0.119463496
61	0xbb9c9f4a	-0.004779731
62	0x3e578159	0.21045436
63	0x3d4a9114	0.049454764
64	0xbcaa430a	-0.02078392
65	0x3e64a38b	0.22328012
66	0xbe60ba39	-0.21946038
67	0x3e8f7ff0	0.28027296
68	0x3df75ff0	0.120788455
69	0x3ccede12	0.025252376
70	0x3e7d0e1e	0.24712417
71	0xbeab92db	-0.3351048
72	0xbe6cc5f7	-0.23122393
73	0xbda8d370	-0.082434535
74	0x3e4dd0cb	0.2009918
75	0x3e2e2d7e	0.17009541
76	0xbd2a5bfe	-0.041591637
77	0xbe7aa7a7	-0.24478017
78	0x3e1e21cd	0.15442581
79	0xbea6dcfc	-0.32590473
80	0xbeb8f95f	-0.36127755
81	0x3e673337	0.2257813
82	0x3ec09b93	0.37618694
83	0xbe8dfd9a	-0.27732545
84	0x3e5b4fa2	0.21417096
85	0xbe4fb644	-0.20284373
86	0xbea44708	-0.32085443
87	0x3e9932ee	0.2992167
88	0xbe405cfa	-0.18785468
89	0x3dd9b8a3	0.1063092
90	0x3e80d24b	0.2516044
91	0x3e95c530	0.29252005
92	0x3ebd9634	0.37028658
93	0xbe9987cd	-0.2998642
94	0x3e127446	0.14302167
95	0x3ebff879	0.37494257
96	0x3d974a7e	0.07387255
97	0xbe118d6f	-0.14214109
98	0xbd4f429a	-0.050600626
99	0x3e9a7cec	0.30173433
100	0x3e909a50	0.2824273
101	0xbe86f6c5	-0.26360145
102	0x3ea1f720	0.31633854
103	0x3ebd30f2	0.36951405
104	0x3e038c36	0.12846455
105	0x3e14f6b1	0.1454723
106	0xbdadcc96	-0.08486287
107	0x3e4a5fb4	0.1976307

gru1.bias_ih_l0 f4 [18]
0	0x3d46c2e1	0.048525695
1	0x3c96563c	0.018351667
2	0xbe33b8e5	-0.17551
3	0x3eb33453	0.35000858
4	0x3e61bd60	0.22044897
5	0x3d00e164	0.03146495
6	0x3e54ae5e	0.20769641
7	0x3d8062d6	0.062688515
8	0x3e86a244	0.26295674
9	0x3dc7f9bd	0.09764431
10	0x3ec9437e	0.39309305
11	0xbe0349f0	-0.12821174
12	0xbcb11480	-0.02161622
13	0x3e5565cf	0.20839618
14	0xbd1925b0	-0.037389457
15	0xbe628db3	-0.22124366
16	0x3e57eedc	0.21087211
17	0xba117b93	-0.0005549725

gru1.bias_hh_l0 f4 [18]
0	0x3e58958c	0.21150798
1	0x3decb766	0.11558418
2	0x3e031665	0.12801512
3	0xbe3aca32	-0.18241194
4	0x3e84efee	0.25964302
5	0x3ec66dac	0.38755548
6	0xbe571eae	-0.21007797
7	0x3d9f451a	0.07776852
8	0x3d88f2a3	0.06686904
9	0x3d8ddfb9	0.06927437
10	0xbde82c15	-0.11336533
11	0xbc4102ae	-0.011780424
12	0x3d6baafc	0.05753611
13	0xbd9e3969	-0.07725794
14	0x3e7f621a	0.24939767
15	0x3ecd661e	0.40116972
16	0xbe9a7583	-0.3016778
17	0x3cc62530	0.024187654

gru1.weight_ih_l1 f4 [18, 6]
0	0x3d976506	0.073923156
1	0x3df3567f	0.11881732
2	0x3ecb38b6	0.39691705
3	0xbe2fc747	-0.17165862
4	0xbea71029	-0.32629517
5	0xbe8edc9f	-0.27902696
6	0x3e9dc641	0.30815318
7	0xbe61d833	-0.2205513
8	0x3dbcbfce	0.09216271
9	0x3dd247e4	0.10267618
10	0x3c650b61	0.013979764
11	0xbd8db438	-0.069191396
12	0x3e98db48	0.29854798
13	0x3e755add	0.23960443
14	0xbea203f9	-0.31643656
15	0xbea391a0	-0.3194704
16	0xbd324992	-0.043527193
17	0x3cbc5b3d	0.022992725
18	0xbe9a86c8	-0.30180955
19	0x3d86627a	0.06561752
20	0xbe7ea6c1	-0.24868299
21	0xbd02d7f7	-0.03194424
22	0x3ea12d37	0.3147981
23	0x3e3b7222	0.18305257
24	0xbeaf0b64	-0.34188378
25	0x3d8fba42	0.07017948
26	0xbdbc2007	-0.09185796
27	0x3ec5d8e4	0.38642037
28	0x3e9f2e05	0.31089798
29	0xbe0959a8	-0.13413107
30	0x3e9aa28f	0.30202147
31	0xbd4ce31d	-0.05002128
32	0xbdd840d8	-0.10559243
33	0xbe956ea9	-0.2918599
34	0x3e920268	0.2851746
35	0xbdf8b367	-0.12143593
36	0x3d8ca783	0.06867888
37	0xbec1f4b5	-0.3788201
38	0x3e0ea001	0.13928224
39	0xbecc175a	-0.39861566
40	0xbe22edd2	-0.15911034
41	0x3e19c7ec	0.1501767
42	0x3e1d37da	0.15353337
43	0xbe6c1562	-0.23055032
44	0xbdae1e05	-0.085018195
45	0xbeb1995c	-0.34687316
46	0xbea409a1	-0.32038596
47	0x3ec02216	0.37526006
48	0x3ece104c	0.4024681
49	0x3ecf6b57	0.4051158
50	0xbd7722ad	-0.060335804
51	0x3de25ceb	0.11052879
52	0xbe048e59	-0.12944926
53	0xbe1592ae	-0.14606735
54	0x3d484dea	0.04890243
55	0x3d91ca31	0.07118643
56	0x3ebc890c	0.36823308
57	0x3cd9161c	0.0264998
58	0x3e9f5395	0.31118456
59	0x3ea8314f	0.3285012
60	0x3df50236	0.11963312
61	0x3eb3f0a4	0.35144532
62	0xbe9cb0a1	-0.30603507
63	0x3d75dd98	0.06002578
64	0x3de1044c	0.10987148
65	0xbdeb01ef	-0.11474978
66	0x3cea184e	0.028576043
67	0x3d9e7979	0.07738013
68	0xbcb2fc12	-0.021848712
69	0xbec1e2e9	-0.3786843
70	0x3e2e0f98	0.16998136
71	0xbeb06080	-0.34448624
72	0x3dac2fba	0.084075406
73	0xbe8f7509	-0.28018978
74	0xbe76927c	-0.24079317
75	0xbe7774a2	-0.24165586
76	0x3e8c7413	0.27432308
77	0xbea7cd0e	-0.32773632
78	0x3e301f91	0.17199542
79	0xbb86eade	-0.004117354
80	0xbb4400f4	-0.0029907795
81	0xbd9f5879	-0.07780547
82	0xbe830b17	-0.25594398
83	0xbd338243	-0.0438254
84	0x3e301777	0.17196451
85	0xbe2ff25e	-0.171823
86	0xbebe0bc5	-0.37118354
87	0xbddcecb4	-0.10787335
88	0x3d8b2a4a	0.067951754
89	0xbeb1d3ce	-0.34731907
90	0x3ccdf4dc	0.025141172
91	0x3eaf7e57	0.34276077
92	0x3d3cc029	0.046081696
93	0xbdd550e0	-0.10415816
94	0x3ecd16cd	0.40056458
95	0x3e0227fd	0.12710567
96	0x3c88cb82	0.016698603
97	0xbea6325e	-0.32460302
98	0x3e90ad26	0.28257102
99	0xbe53b54f	-0.20674632
100	0x3d89845a	0.06714697
101	0xbe839015	-0.25695863
102	0xbe565da7	-0.20934163
103	0xbea6a694	-0.32548964
104	0xbe1ef685	-0.15523727
105	0x3ed0e134	0.40796816
106	0xbcf7bd53	-0.030241644
107	0xbe33c481	-0.17555429

gru1.weight_hh_l1 f4 [18, 6]
0	0x3e35b177	0.17743479
1	0xbcf6703e	-0.030082818
2	0xbe505847	-0.20346175
3	0x3e6a30c5	0.22870167
4	0xbb0504cf	-0.0020297056
5	0xbce68846	-0.028141152
6	0x3e0667e2	0.13125566
7	0xbd539dd6	-0.051664196
8	0x3d146b84	0.036235347
9	0x3d97f289	0.07419307
10	0x3cdf17b1	0.027232977
11	0xbeb42f89	-0.35192516
12	0xbe347ba4	-0.1762529
13	0x3e3ae70c	0.182522
14	0xbc31dbef	-0.010855659
15	0xbe0b3256	-0.1359342
16	0x3e2289b0	0.15872836
17	0x3e66b2c8	0.22529137
18	0x3e934745	0.28765312
19	0xbeb1795e	-0.34662908
20	0x3eb29a84	0.3488351
21	0xbe259f0c	-0.16173953
22	0xbd4eefef	-0.050521787
23	0x3e9ee494	0.31033766
24	0xbec30d80	-0.38096237
25	0xbe36f759	-0.17867793
26	0x3ebf5b92	0.3737455
27	0x3e807044	0.25085652
28	0xbcfa0c1c	-0.030523352
29	0xbe6aeeab	-0.22942607
30	0xbd7e7a95	-0.062128622
31	0xbdf7359b	-0.12070771
32	0xbecc6ab1	-0.3992515
33	0xbe3713c3	-0.17878632
34	0x3d4fa4af	0.050694164
35	0xbe649bc2	-0.22325042
36	0xbd6723de	-0.05643069
37	0xbdf92729	-0.12165672
38	0xbea7b596	-0.32755727
39	0xbecc1b87	-0.39864752
40	0x39f2fbfa	0.00046345574
41	0xbd0af84a	-0.033928193
42	0x3dd4c316	0.10388772
43	0xbeb2b07c	-0.34900272
44	0xbbc1eca0	-0.0059181005
45	0xbe03cfcd	-0.12872238
46	0x3e5bd5a1	0.21468212
47	0x3e9edaff	0.31026456
48	0x3eab093b	0.3340548
49	0x3eb61a9d	0.3556718
50	0xbe889823	-0.2667857
51	0xbe9677f5	-0.29388395
52	0xbdd125b7	-0.10212272
53	0x3e4d0f97	0.20025478
54	0x3ec02c95	0.37534013
55	0x3d0e6e8b	0.03477339
56	0x3eb87205	0.3602449
57	0x3e770b16	0.24125323
58	0xbb99f3e2	-0.0046982625
59	0xbcc2671a	-0.023730803
60	0xbdcc744a	-0.09983118
61	0x3e03bce5	0.12865026
62	0x3e105d13	0.14098005
63	0x3db5044a	0.08838709
64	0x3ec50f27	0.38488123
65	0xbe306050	-0.1722424
66	0xbe895ac9	-0.26827076
67	0x3c2566e7	0.010095335
68	0xbeb59eda	-0.35472757
69	0x3e339bd8	0.17539918
70	0xbd5d5905	-0.054039974
71	0xbdfcf5e7	-0.1235159
72	0xbe080aa8	-0.13285315
73	0xbd201826	-0.03908553
74	0x3d63d1d8	0.055620044
75	0x3e344a21	0.17606403
76	0xbe631ff6	-0.22180161
77	0xbdddaf15	-0.1082441
78	0x3e887d52	0.26658112
79	0x3dee1d1c	0.11626646
80	0x3e5018aa	0.20321909
81	0xbe8851bf	-0.26624867
82	0xbebb478f	-0.36578032
83	0x3d560c43	0.052257787
84	0x3ea9d092	0.3316694
85	0xbde85c96	-0.11345784
86	0xbe0f2d70	-0.13982177
87	0xbd94793e	-0.072496876
88	0xbdab7be2	-0.08373238
89	0xbe8be4f0	-0.27323103
90	0xbea95e43	-0.33079728
91	0x3e2ebd3f	0.17064379
92	0xbda38bc0	-0.079856396
93	0xbdb4869a	-0.08814736
94	0x3d99e247	0.07513862
95	0x3e19804c	0.14990348
96	0x3e8c8f1f	0.27452943
97	0xbe9cdc1a	-0.30636674
98	0xbe13c062	-0.14428857
99	0x3e93591b	0.2877892
100	0xbde3a7f2	-0.111160174
101	0x3e7d0b60	0.2471137
102	0x3e45afb9	0.19305314
103	0xbe825124	-0.2545253
104	0x3e03b83a	0.12863246
105	0x3ead0de5	0.33799663
106	0x3e45436f	0.19264005
107	0x3ec6bd8d	0.3881649

gru1.bias_ih_l1 f4 [18]
0	0xbe96af4b	-0.29430613
1	0x3e2faf93	0.1715682
2	0x3d2c8495	0.042118628
3	0x3e830c62	0.25595385
4	0x3eb7e101	0.35913852
5	0x3db5e049	0.088806696
6	0x3e4f9a2d	0.20273657
7	0xbecc4af1	-0.39900926
8	0xbea9d274	-0.33168375
9	0xbec93033	-0.39294586
10	0xbeb4ce89	-0.35313824
11	0xbea3711f	-0.31922242
12	0xbccf7779	-0.025325524
13	0x3e3713c0	0.17878628
14	0x3e8f869a	0.2803238
15	0x3ec88b57	0.39168808
16	0xbe0ca476	-0.13734612
17	0x3d9752f9	0.07388873

gru1.bias_hh_l1 f4 [18]
0	0x3de0f969	0.10985071
1	0x3eb84993	0.35993633
2	0xbe8616cd	-0.2618927
3	0x3e9685c0	0.29398918
4	0xbeaa9739	-0.333185
5	0x3e690aec	0.22758073
6	0x3df6d456	0.120522186
7	0x3e818ca5	0.25302616
8	0xbe31107b	-0.17291443
9	0xbe8f4163	-0.27979574
10	0x3d71d04c	0.059036538
11	0xbd892154	-0.0669581
12	0xbe3188e9	-0.17337383
13	0x3e9402eb	0.28908476
14	0xbeadf2e3	-0.3397437
15	0x3e8be623	0.27324018
16	0xbd135b9a	-0.03597603
17	0x3b902684	0.0043991227

gru1.weight_ih_l2 f4 [18, 6]
0	0x3e54054c	0.20705146
1	0x3e479c8e	0.19493315
2	0x3ea5c2dc	0.32375228
3	0xbebb2f8d	-0.36559716
4	0xbe461c8e	-0.1934683
5	0x3e757ba6	0.2397295
6	0xbd881fd4	-0.06646696
7	0xbe2ce777	-0.16885172
8	0x3ec813c8	0.39077592
9	0xbe3ca6a1	-0.18422939
10	0x3e4cb4cb	0.19990842
11	0xbe6f00c3	-0.23340134
12	0xbda477e9	-0.080306835
13	0xbe77bba7	-0.24192677
14	0x3ec7a37f	0.38991925
15	0x3dec08f6	0.11525147
16	0x3eb2307e	0.34802622
17	0xbdfeca05	-0.12440876
18	0xbe8fb942	-0.28071028
19	0x3e915910	0.28388262
20	0xbea8ad17	-0.32944557
21	0x3e1e26e0	0.15444517
22	0xbd8bdf8d	-0.06829748
23	0xbe324591	-0.1740935
24	0x3e71dfbc	0.23620504
25	0xbeb8cb1f	-0.3609247
26	0xbea0ce13	-0.31407222
27	0x3e13396e	0.14377376
28	0xbeb4dd92	-0.35325295
29	0xbe682afd	-0.22672649
30	0x3d72f314	0.05931385
31	0xbe615232	-0.22004011
32	0x3e522d11	0.20525004
33	0xbe44fc20	-0.19236803
34	0xbe98e825	-0.29864612
35	0xbe8a2303	-0.26979837
36	0xbe903c09	-0.28170803
37	0x3d56ea23	0.052469384
38	0xbecefdf6	-0.40428132
39	0xbdadc1a4	-0.084842
40	0x3e3937fc	0.18087763
41	0xbe4acd7e	-0.19804952
42	0xbd8b7835	-0.06810037
43	0xbeadea68	-0.339679
44	0xbe66dba2	-0.22544721
45	0x3e82b5fe	0.25529474
46	0x3e5ffda4	0.218741
47	0xbcbd841c	-0.023134284
48	0x3d5dc53d	0.05414318
49	0x3e736a63	0.23771052
50	0xbb976815	-0.004620562
51	0x3d96f8ca	0.073716715
52	0xbe4ed1df	-0.20197247
53	0xbe6f9801	-0.23397829
54	0xbeaaa5f4	-0.33329737
55	0xbec7f75b	-0.39055905
56	0x3da50212	0.080570355
57	0xbe80df65	-0.25170437
58	0xbd0c878a	-0.034308948
59	0xbeaf0006	-0.34179705
60	0x3e2fea97	0.17179333
61	0x3ce2c980	0.027683973
62	0x3e8fc971	0.28083375
63	0xbea3975c	-0.31951416
64	0xbe921175	-0.28528944
65	0x3e50a07e	0.20373723
66	0x3e11b137	0.14227758
67	0x3e624f80	0.2210064
68	0xbdc53340	-0.09628916
69	0xbb5ea6aa	-0.0033973851
70	0xbe5d78ba	-0.21628085
71	0x3d91a674	0.071118265
72	0xbe51fcbd	-0.20506568
73	0x3dcb751d	0.09934447
74	0x3e9a181f	0.30096528
75	0xbe4b888f	-0.19876312
76	0xbd8d1201	-0.068881996
77	0xbda688c1	-0.081315525
78	0x3d242a9b	0.040079694
79	0xbe20c6fd	-0.15700908
80	0x3ccef775	0.025264481
81	0x3db341b1	0.08752764
82	0x3eabdd80	0.3356743
83	0xbe13c5d7	-0.14430939
84	0xbd0e0c18	-0.034679502
85	0x3e9e10e2	0.30872256
86	0x3da83e51	0.08215011
87	0x3e91444c	0.2837242
88	0xbeb70c2c	-0.35751474
89	0xbe3d2c1c	-0.18473858
90	0xbdcb11e8	-0.09915525
91	0xbd284b10	-0.04108721
92	0x3e165cda	0.14683858
93	0x3e31b5cc	0.17354506
94	0x3cecbdee	0.02889916
95	0xbea4a87d	-0.32159796
96	0x3e8c2776	0.27373856
97	0xbca9cf0d	-0.020728612
98	0xbe55732e	-0.20844719
99	0x3e358928	0.17728102
100	0xbd2c846a	-0.042118467
101	0x3e96c6b7	0.29448482
102	0xbd85b08c	-0.06527814
103	0x3e6c21e8	0.23059809
104	0xbca10922	-0.019657675
105	0xbbd28f7b	-0.0064257956
106	0x3ea17056	0.31531018
107	0x3e0429f5	0.1290663

gru1.weight_hh_l2 f4 [18, 6]
0	0x3ec877ab	0.391538
1	0x3cf641b4	0.030060627
2	0x3ebbebd9	0.36703375
3	0xbe5c9268	-0.21540225
4	0x3e1ef913	0.15524702
5	0xbecf5507	-0.40494558
6	0xbecad394	-0.39614546
7	0xbe5a41c8	-0.21314156
8	0x3eb25991	0.3483396
9	0x3eadc6da	0.33940774
10	0x3e7fdc30	0.24986339
11	0xbec9b10d	-0.39392892
12	0x3dd7b842	0.10533191
13	0xbed0d579	-0.40787867
14	0xbda734fd	-0.081644036
15	0xbe3bf534	-0.18355256
16	0x3ea4889c	0.32135475
17	0xbea4677b	-0.321102
18	0xbe219100	-0.1577797
19	0xbdb55d57	-0.08855694
20	0xbe1eeb63	-0.1551948
21	0xbd9b53b7	-0.07584327
22	0xbc6b6e1b	-0.014369513
23	0xbe9433a7	-0.28945658
24	0xbe91ec7e	-0.28500742
25	0xbebc1708	-0.3673632
26	0xbe63ba23	-0.22238974
27	0x3ea25c63	0.3171111
28	0xbe1c5ec3	-0.15270524
29	0x3e788452	0.24269226
30	0x3e8a7566	0.27042693
31	0x3e8ee847	0.2791159
32	0xbe8f9359	-0.28042105
33	0xbe402d4d	-0.18767281
34	0x3e7e3e8b	0.24828546
35	0xbeaed988	-0.34150338
36	0xbd6f4dcb	-0.0584238
37	0xbecafa7d	-0.39644232
38	0xbe964176	-0.29346818
39	0x3e769248	0.2407924
40	0xbe8fde95	-0.28099504
41	0xbe3899f2	-0.18027475
42	0xbddb915d	-0.10721085
43	0xbe7fbb91	-0.24973895
44	0xbe16ddb5	-0.14733012
45	0x3e9d39b6	0.30708092
46	0xbe50d0bf	-0.2039213
47	0xbe29cd1e	-0.16582152
48	0xbe0c11e1	-0.13678695
49	0x3ec01bcc	0.37521207
50	0x3e7bbf4a	0.2458469
51	0xbe9e544c	-0.30923688
52	0xbe427bf6	-0.189926
53	0xbea304cd	-0.318396
54	0xbeae068d	-0.33989373
55	0x3e90931d	0.2823724
56	0xbd9e038a	-0.07715519
57	0x3d29afa9	0.04142729
58	0xbec28bed	-0.3799738
59	0x3c8f7329	0.017510967
60	0x3e852f2b	0.2601255
61	0xbe67ab26	-0.22623882
62	0x3e7f3036	0.24920735
63	0x3dcef509	0.101053305
64	0xbe916cc0	-0.28403282
65	0xbe0a5a01	-0.13510896
66	0xbeb3c04b	-0.35107645
67	0xbeabf65f	-0.33586404
68	0xbe8743aa	-0.2641881
69	0xbd319b7b	-0.04336117
70	0xbdcc28bd	-0.09968708
71	0xbd62d599	-0.055379484
72	0x3ec67f9b	0.3876923
73	0xbec15c05	-0.37765518
74	0xbcf71cd5	-0.030165115
75	0xbe97e4b5	-0.29666677
76	0x3e32ec25	0.17472894
77	0x3e1d5991	0.15366198
78	0xbd6957c2	-0.056968458
79	0xbe351d6c	-0.17687005
80	0x3e58ae82	0.2116032
81	0xbde3af58	-0.111174285
82	0x3ea13d66	0.31492156
83	0xbe884c6f	-0.26620814
84	0xbdc9d450	-0.098549485
85	0xbd98d623	-0.07462718
86	0xbe72e51e	-0.23720214
87	0xbda79705	-0.081831016
88	0xbeb1a45c	-0.3469571
89	0xbe2a5a87	-0.16636096
90	0x3e412588	0.18861973
91	0xbdb7d464	-0.08976057
92	0x3e3509d7	0.17679535
93	0xbe742bb4	-0.23844796
94	0xbe1a6873	-0.15078907
95	0x3ec38eec	0.38194978
96	0x3d6328ad	0.055458713
97	0x3e2cae4a	0.16863361
98	0x3ec03772	0.375423
99	0xbd970e9b	-0.07375833
100	0xbe9d5756	-0.30730695
101	0xbe8c47f2	-0.2739864
102	0x3e888f03	0.2667161
103	0x3d15007a	0.036377408
104	0x3dd1c697	0.10242956
105	0xbe9550f2	-0.2916332
106	0xbdcde383	-0.1005316
107	0x3da980f8	0.08276552

gru1.bias_ih_l2 f4 [18]
0	0xbe862fed	-0.2620844
1	0xbeb1b2e4	-0.34706795
2	0x3ec8e8b8	0.3924005
3	0xbe5302fa	-0.20606604
4	0xbe1eb1f2	-0.15497568
5	0xbe010f8c	-0.12603587
6	0xbe4587f4	-0.19290143
7	0xbec0d192	-0.3765989
8	0x3e45c543	0.1931353
9	0xbe3857b4	-0.18002206
10	0x3ec733ce	0.3890671
11	0xbe7961e1	-0.24353744
12	0x3c793f48	0.015212841
13	0x3daa9dda	0.08330889
14	0x3e12a3c5	0.14320286
15	0x3db6ce45	0.089260615
16	0xbe0da0bb	-0.13830845
17	0xbdcc8dbc	-0.09987971

gru1.bias_hh_l2 f4 [18]
0	0xbea8d536	-0.32975167
1	0x3e5dfeaa	0.21679178
2	0x3e944409	0.28958157
3	0x3e689c4d	0.22715874
4	0xbeb37caa	-0.3505605
5	0xbe8cfa11	-0.27534536
6	0x3e015d07	0.12633143
7	0xbec38f8e	-0.3819546
8	0xbe974945	-0.29548088
9	0xbeb464b3	-0.35233077
10	0xbcea7a2c	-0.02862271
11	0x3ea29074	0.31750834
12	0xbd81a586	-0.06330399
13	0xbec807cc	-0.3906845
14	0xbec03dad	-0.37547055
15	0x3e928cbf	0.28623006
16	0xbecdd4a7	-0.40201303
17	0x3ea01b71	0.31270936

gru1.weight_ih_l3 f4 [18, 6]
0	0xbe6e9acc	-0.23301238
1	0xbe920c7c	-0.2852515
2	0x3cb5ed4b	0.022207877
3	0x3d9ed18a	0.0775481
4	0x3ecf5372	0.4049335
5	0xbe07ce3b	-0.13262264
6	0x3e1eec3b	0.15519802
7	0x3d730358	0.05932936
8	0xbe935177	-0.2877309
9	0xbccd849b	-0.025087645
10	0xbc006230	-0.00783591
11	0x3df82d0c	0.12117967
12	0x3eb18ce9	0.34677818
13	0x3db641a0	0.08899236
14	0xbe8b97be	-0.27264208
15	0xbecb06f0	-0.3965373
16	0x3ec7d09c	0.39026344
17	0x3d8b9b8a	0.06816776
18	0xbe87ffbf	-0.26562306
19	0xbdc907e2	-0.09815957
20	0xbe527d52	-0.20555618
21	0x3dccc269	0.09998018
22	0x3e199d93	0.15001516
23	0x3e3e0ae6	0.18558845
24	0x3e1d4ea8	0.15362036
25	0xbed0e32c	-0.40798318
26	0xbd626dad	-0.055280376
27	0x3e2dac10	0.16960168
28	0xbe608d35	-0.21928866
29	0xbd9cdd3c	-0.076593846
30	0xbdd4a96f	-0.103838794
31	0x3d66e701	0.056372646
32	0x3cdfc161	0.02731389
33	0xbc75975e	-0.014989702
34	0x3c6fc229	0.014633694
35	0xbde616f4	-0.11234847
36	0x3dba4133	0.09094467
37	0x3c08de1c	0.008353736
38	0x3e72cad9	0.23710193
39	0x3ec2f7fc	0.38079822
40	0xbe3ca024	-0.18420464
41	0xbe81effc	-0.25378406
42	0xbc9c57f4	-0.019084908
43	0x3e988f73	0.29796943
44	0x3d301d9e	0.042996995
45	0x3dd02b03	0.10164454
46	0x3ec0751c	0.37589347
47	0xbe50e923	-0.20401435
48	0xbe00534d	-0.12531777
49	0xbdbe0124	-0.09277561
50	0xbe91d083	-0.28479394
51	0xbeba4402	-0.3638001
52	0xbdea7469	-0.11447985
53	0x3e89aaaa	0.2688802
54	0xbe63cb74	-0.2224558
55	0xbeb4b93d	-0.35297576
56	0x3d4baaa9	0.0497233
57	0x3dae9441	0.08524371
58	0xbd8fda09	-0.07024009
59	0x3d7dc0fc	0.061951622
60	0xbe93afa3	-0.28844938
61	0x3eb253c0	0.3482952
62	0x3d333159	0.043748233
63	0xbdeb20fc	-0.11480901
64	0xbe654711	-0.22390391
65	0x3d4066bd	0.04697298
66	0x3dda599c	0.10661623
67	0x3c060c43	0.008181634
68	0xbe5cf9e5	-0.21579702
69	0x3e778eab	0.24175517
70	0xbd8767ef	-0.06611621
71	0x3e936725	0.2878963
72	0xbdd75eb1	-0.10516108
73	0x3e1acc6e	0.15117046
74	0xbcdc3d32	-0.026884649
75	0x3d3d100a	0.046157874
76	0x3da64fb6	0.081206724
77	0xbe787739	-0.2426423
78	0x3e0659f9	0.1312026
79	0x3ec0e219	0.376725
80	0xbdf56566	-0.11982231
81	0xbe55be39	-0.20873345
82	0x3eb4d47d	0.35318366
83	0xbe30f48d	-0.17280789
84	0x3eb5912c	0.3546232
85	0x3e77b269	0.24189152
86	0xbd3eba4c	-0.046564385
87	0x3e4e52a2	0.2014871
88	0xbeb7c073	-0.35889015
89	0xbd8b6ba8	-0.06807643
90	0xbe423221	-0.18964435
91	0x3dabad3c	0.08382651
92	0x3e59938a	0.21247688
93	0x3eb18cbe	0.3467769
94	0xbd8e8d3d	-0.06960533
95	0xbdea03d6	-0.11426513
96	0xbe9bc9af	-0.3042731
97	0x3d954649	0.072887965
98	0x3ea5719d	0.32313243
99	0x3e6a638d	0.22889538
100	0x3e3c062e	0.18361732
101	0x3d0aad83	0.03385688
102	0xbe659459	-0.22419871
103	0xbebdb2a5	-0.37050357
104	0xbdbbddb8	-0.09173149
105	0x3ea56bee	0.32308906
106	0xbe900464	-0.2812835
107	0xbe44c417	-0.19215427

gru1.weight_hh_l3 f4 [18, 6]
0	0xbe7672e6	-0.24067268
1	0xbe32534c	-0.17414588
2	0xbe7421d1	-0.23841025
3	0x3c561b02	0.013067963
4	0x3ec3170b	0.38103518
5	0xbddda2c9	-0.108220644
6	0xbe708038	-0.23486412
7	0x3ea59f4c	0.32348096
8	0x3c2cb099	0.010540151
9	0xbeccac16	-0.3997504
10	0xbebd8753	-0.37017307
11	0x3e1a559f	0.15071724
12	0xbd54aa69	-0.05192033
13	0xbd049688	-0.03237012
14	0x3eb83612	0.35978752
15	0xbe31f21f	-0.17377518
16	0x3e6bc09f	0.23022698
17	0xbeb54fde	-0.35412496
18	0x3e8e41b8	0.27784514
19	0x3e39eb7d	0.18156238
20	0x3c705edc	0.014671054
21	0x3eb7cf74	0.35900462
22	0xbe491e50	-0.1964047
23	0x3ccb9f98	0.024856374
24	0x3e9d2e58	0.3069942
25	0x3e1bbe76	0.15209374
26	0x3ecb878a	0.39751846
27	0xbe90c74f	-0.2827706
28	0xbcf35562	-0.0297038
29	0x3e5ea54b	0.21742742
30	0xbe1c1bcf	-0.15244983
31	0xbd1edf7b	-0.038787346
32	0x3ed025a2	0.40653712
33	0x3ead1933	0.33808288
34	0x3ec80ad4	0.3907076
35	0xbe08b8d9	-0.13351764
36	0xbe9a8176	-0.30176896
37	0xbe989fbb	-0.29809365
38	0xbe8f2b79	-0.27962855
39	0xbe6061a9	-0.21912254
40	0x3d69fbd3	0.057124924
41	0x3e6ffd39	0.2343644
42	0xbebdf784	-0.37102902
43	0x3e9aed99	0.30259398
44	0xbe94c695	-0.29057756
45	0xbd25f40e	-0.04051595
46	0x3e28a50d	0.16469212
47	0x3c4a0a34	0.012331534
48	0xbe9041e6	-0.28175277
49	0xbd96e982	-0.07368757
50	0xbe8c27b1	-0.27374032
51	0x3d3c9f4e	0.046050362
52	0xbec59ad2	-0.3859468
53	0x3e3cb72c	0.1842925
54	0x3ec31f65	0.3810989
55	0x3e5e9b6f	0.2173898
56	0xbebb8cae	-0.36630768
57	0x3e6103bc	0.21974081
58	0x3bbd25ec	0.005772343
59	0xbeb95f9b	-0.36205754
60	0x3e163506	0.14668664
61	0xbdf5cbec	-0.12001786
62	0x3e348d9e	0.17632148
63	0x3d90b228	0.070652306
64	0xbd8c7254	-0.06857744
65	0x3d051b43	0.032496702
66	0xbdb8725b	-0.090061866
67	0xbeca442e	-0.39505142
68	0xbca48405	-0.020082483
69	0x3ea2638b	0.3171657
70	0xbeae1057	-0.3399684
71	0xbdf05b71	-0.11736191
72	0xbde212a8	-0.11038715
73	0x3eb76ac8	0.35823655
74	0xbdd6762d	-0.10471759
75	0x3d897b57	0.06712978
76	0xbe498cc8	-0.1968261
77	0xbe83223c	-0.25612056
78	0x3ced8d96	0.028998177
79	0x3ec65577	0.3873708
80	0xbeb4fcb3	-0.35349044
81	0xbca66d19	-0.020315694
82	0x3db306ab	0.08741506
83	0xbe119ccf	-0.14219974
84	0x3e5381fc	0.20655054
85	0x3d8109f9	0.0630073
86	0xbd69a173	-0.057038736
87	0x3e4d75b1	0.20064427
88	0xbea3c244	-0.3198415
89	0xbe938cc1	-0.28818324
90	0x3d972f23	0.073820375
91	0x3e13cc98	0.14433515
92	0xbe0b74d4	-0.13618785
93	0xbe11e65f	-0.14248036
94	0xbe149913	-0.14511518
95	0x3e626bdc	0.22111458
96	0x3b2396ed	0.0024961785
97	0xbe0abe89	-0.13549246
98	0xbd71cb11	-0.05903155
99	0x3dbf8334	0.09351197
100	0x3dd85cfd	0.10564611
101	0xbe8eb91b	-0.278756
102	0xbe69efab	-0.22845332
103	0xbeadc0bf	-0.33936116
104	0xbeb292a8	-0.34877515
105	0x3e018c5b	0.12651198
106	0xbe608bcc	-0.21928328
107	0xbe55efa9	-0.20892204

gru1.bias_ih_l3 f4 [18]
0	0x3e5d6b7f	0.21623038
1	0xbe24a8bd	-0.16079994
2	0xbd8b1ce3	-0.06792619
3	0x3ebcce94	0.36876357
4	0xbec45886	-0.38348788
5	0xbeb03001	-0.34411624
6	0x3c88e53a	0.016710866
7	0x3c7d9d96	0.015479466
8	0x3e8f0657	0.27934524
9	0xbe906a52	-0.28206116
10	0xbddf6365	-0.1090763
11	0xbe2b9ab1	-0.16758229
12	0xbea85349	-0.32876042
13	0x3e93b24d	0.2884697
14	0xbecaca02	-0.39607245
15	0xbe5edbe0	-0.21763563
16	0x3e74986a	0.23886266
17	0xbeb785a7	-0.35844156

gru1.bias_hh_l3 f4 [18]
0	0xbead1a95	-0.33809343
1	0xbe6f6d9a	-0.23381653
2	0x3e27d219	0.1638874
3	0x3ab50e2a	0.0013813425
4	0xbe86acc1	-0.26303676
5	0xbe6610bd	-0.22467323
6	0xbe0299b5	-0.12753947
7	0xbe1e5e62	-0.15465692
8	0xbe441722	-0.1914945
9	0xbe86db0d	-0.26338997
10	0xbd099158	-0.033585876
11	0x3e332fdb	0.17498724
12	0xbdcded1d	-0.100549914
13	0x3d40c981	0.04706717
14	0x3e4fbacc	0.20286101
15	0xbe76e739	-0.24111642
16	0xbeadd338	-0.3395021
17	0x3d993d77	0.074824266

gru1.weight_ih_l4 f4 [18, 6]
0	0x3e22e9c7	0.15909491
1	0xbd93b0b3	-0.07211437
2	0x3c97a4f6	0.018511277
3	0x3e4af65b	0.1982054
4	0x3d37e7e8	0.044898897
5	0x3e48637a	0.19569197
6	0xbd92ef6c	-0.07174572
7	0xbe967f4b	-0.29393992
8	0x3e794809	0.24343885
9	0xbd38324c	-0.04496984
10	0xbec047a5	-0.3755466
11	0xbdb4e988	-0.08833605
12	0xbdc4ffad	-0.09619079
13	0x3e150e95	0.14556344
14	0xbeb8053b	-0.3594149
15	0xbe1c7298	-0.15278089
16	0xbe1cca0f	-0.15311454
17	0x3e4f722c	0.20258397
18	0xbe6bf9bd	-0.23044486
19	0x3ed10061	0.40820602
20	0x3dc46645	0.09589819
21	0xbe26ff84	-0.16308409
22	0xbebf2a26	-0.37336844
23	0xbeb3319f	-0.34998795
24	0xbca2044b	-0.019777438
25	0x3e4d099c	0.20023197
26	0xbe639a92	-0.22226933
27	0xbca99efb	-0.02070569
28	0xbc800ae4	-0.015630193
29	0xbe50e155	-0.20398457
30	0xbecf24b9	-0.40457705
31	0x3e04fcc0	0.12987041
32	0xbebee472	-0.37283665
33	0xbe69420a	-0.22779098
34	0xbe0a0d04	-0.13481528
35	0x3e0a9a32	0.13535383
36	0x3e628abd	0.22123237
37	0xbdd7f4b0	-0.10544717
38	0x3e9bab45	0.30404106
39	0x3ebc972b	0.36834082
40	0xbd86843d	-0.06568191
41	0x3e7afe92	0.24511173
42	0xbd8e30a9	-0.06942875
43	0x3eb61199	0.355603
44	0x3cbb374c	0.022853516
45	0xbe85f26d	-0.2616152
46	0x3e961ace	0.29317325
47	0xbe701b42	-0.23447898
48	0x3e8eb28f	0.27870604
49	0xbe40eba7	-0.18839894
50	0xbea3b00c	-0.3197025
51	0xbeaa2bc7	-0.33236524
52	0x3ebf5f7d	0.3737754
53	0xbeca5409	-0.3951724
54	0xbe84ae97	-0.2591445
55	0xbe574f83	-0.21026425
56	0xbdfc632b	-0.12323602
57	0xbeaf7347	-0.34267637
58	0xbd03fd99	-0.03222427
59	0xbdfa8e5b	-0.122341834
60	0xbd3ff992	-0.04686887
61	0xbe010a77	-0.12601648
62	0x3e6caecd	0.23113556
63	0x3e5a8629	0.2134024
64	0xbe8db1ed	-0.2767481
65	0x3cb6d9d4	0.022320665
66	0x3ecc3bd1	0.39889386
67	0xbeb55932	-0.35419613
68	0xbe417e79	-0.18895902
69	0x3e6ebdbe	0.23314568
70	0xbe44ffc5	-0.19238193
71	0x3daed75f	0.085371725
72	0xbebf8ce1	-0.3741217
73	0xbe596e18	-0.21233404
74	0xbe32ae93	-0.17449407
75	0x3d6c0bb9	0.057628367
76	0x3e22c9f4	0.15897352
77	0x3e8a31cc	0.26991117
78	0xbd59dec7	-0.053190973
79	0x3e2c1e92	0.16808537
80	0x3d8f1a40	0.06987429
81	0xbe05c27e	-0.13062474
82	0xbeb71899	-0.35760954
83	0xbe7b8f14	-0.24566299
84	0x3e9fbc74	0.31198466
85	0xbe8c3030	-0.27380514
86	0xbe8d41a9	-0.27589157
87	0x3e8cbf89	0.2748988
88	0x3e870295	0.26369157
89	0xbec7fb6d	-0.3905901
90	0xbe82563d	-0.2545642
91	0xbeafc8cc	-0.34332883
92	0xbdd0be66	-0.101925656
93	0xbecf4c15	-0.40487733
94	0xbcac3ba3	-0.02102453
95	0xbe1c74ee	-0.1527898
96	0x3e589992	0.21152332
97	0x3e51898e	0.20462629
98	0xbe3e8fbc	-0.18609518
99	0xbdd8eaf8	-0.10591692
100	0xbdd6b5bc	-0.10483882
101	0x3e1a2da6	0.15056476
102	0x3e9d9c6d	0.30783406
103	0x3e5840b1	0.21118428
104	0x3e225183	0.15851407
105	0xbd59e171	-0.053193513
106	0x3d8314ba	0.06400438
107	0x3e9c89a5	0.30573764

gru1.weight_hh_l4 f4 [18, 6]
0	0x3e45b95e	0.19308993
1	0x3ecc28f6	0.39875
2	0x3ec51a2f	0.3849654
3	0xbe5be3e1	-0.21473648
4	0xbe8d36c5	-0.27580848
5	0xbebc0684	-0.3672372
6	0x3d50ca86	0.05097439
7	0xbec550e7	-0.38538286
8	0xbe8a48c6	-0.27008647
9	0x3e189a29	0.14902557
10	0x3e7d4f21	0.24737217
11	0x3ec27036	0.37976235
12	0xbec7e720	-0.39043522
13	0xbc9a3d44	-0.018828042
14	0x3e96250b	0.29325137
15	0x3e328b26	0.17435893
16	0xbdbeec19	-0.09322376
17	0xbda1a271	-0.07892311
18	0xbe46cadb	-0.1941332
19	0xbeae88ed	-0.3408884
20	0x3c522aa3	0.012827548
21	0xbda7ca75	-0.081929125
22	0x3e5b0dc7	0.21391974
23	0x3d79d47c	0.060993657
24	0x3ea601c6	0.32423228
25	0x3eb24494	0.34817946
26	0xbdf1fcb8	-0.118157804
27	0x3ebec4b4	0.37259448
28	0x3e90a911	0.28253987
29	0x3d78b95e	0.060723655
30	0xbe000db3	-0.12505226
31	0xbd84f5a0	-0.06492162
32	0x3ead3bf8	0.33834815
33	0x3ed0da66	0.40791625
34	0xbe9f62c9	-0.31130055
35	0xbe37cb45	-0.17948635
36	0xbc32405d	-0.010879603
37	0xbec35c86	-0.38156527
38	0xbeaf9a36	-0.3429734
39	0x3ece123e	0.40248293
40	0xbe8c7b54	-0.27437842
41	0xbeb3793a	-0.35053426
42	0x3eb049b8	0.34431243
43	0x3ec67dfa	0.38767987
44	0x3d84752e	0.06467663
45	0x3e2b4a07	0.16727458
46	0x3d10fc33	0.035396766
47	0x3d96a1b5	0.07355062
48	0xbecb4373	-0.39699897
49	0xbe0e0252	-0.13868073
50	0xbea6b850	-0.32562494
51	0x3ebeaed6	0.37242764
52	0xbd9926b6	-0.07478087
53	0xbd515c44	-0.051113382
54	0x3ebde787	0.37090704
55	0xbea8e01b	-0.3298348
56	0xbec4f458	-0.3846767
57	0x3e41eca4	0.18937927
58	0x3c3a5805	0.011373525
59	0x3ed00eaa	0.40636188
60	0x3eb659a2	0.3561526
61	0x3e9346f5	0.28765073
62	0xbcca379f	-0.024684725
63	0x3dd16bce	0.1022564
64	0xbe3e2728	-0.18569624
65	0x3e90c961	0.2827864
66	0xbe267db9	-0.16258897
67	0x3e2600c6	0.16211233
68	0x3dccc639	0.099987455
69	0x3eaa73d8	0.33291507
70	0x3e24d2af	0.16095994
71	0x3eb1bf39	0.34716204
72	0x3dd1c12e	0.10241924
73	0xbe9ba936	-0.30402535
74	0xbecd4505	-0.4009172
75	0xbdcfe62f	-0.10151326
76	0x3e640a52	0.22269562
77	0xbe74580c	-0.23861712
78	0xbd48fa1b	-0.049066644
79	0x3e898f23	0.26867017
80	0x3e5a8a59	0.21341838
81	0x3cdac295	0.026704112
82	0x3e4c1a7d	0.1993198
83	0xbeadcea7	-0.33946726
84	0x3eb78156	0.35840863
85	0xbec63fa8	-0.3872044
86	0xbeb3399b	-0.35004887
87	0xbe8ddabd	-0.27705947
88	0x3d1daa22	0.03849233
89	0xbe53f677	-0.20699488
90	0x3d694da8	0.056958824
91	0x3ebe0626	0.37114066
92	0x3c91b6f9	0.017787443
93	0x3ea87b9b	0.32906803
94	0xbd4c9d86	-0.049954914
95	0xbd8ffe1e	-0.07030891
96	0x3e1113bd	0.14167686
97	0xbdc24623	-0.09486034
98	0xbe0d5f8b	-0.13805978
99	0x3ec36f1b	0.38170704
100	0xbe7b646a	-0.24550024
101	0x3ec9612d	0.39331952
102	0x3e256d0d	0.16154881
103	0x3e9c925c	0.30580413
104	0x3ec32ffc	0.38122547
105	0xbcdae600	-0.026721
106	0x3e894d55	0.26816812
107	0x3e889cad	0.26682034

gru1.bias_ih_l4 f4 [18]
0	0x3ec0c3e3	0.3764945
1	0x3ec7446a	0.38919383
2	0x3d433a1c	0.04766284
3	0x3e5db740	0.21651936
4	0xbc5f5621	-0.013631375
5	0x3db8a6ab	0.090161644
6	0xbe90f1b8	-0.28309417
7	0x3ec06d79	0.3758352
8	0xbea97ef4	-0.3310467
9	0x3ed5355a	0.41642267
10	0xbea4154a	-0.32047492
11	0x3d86f569	0.06589777
12	0xbdc5613f	-0.09637689
13	0xbeb9e17c	-0.36304843
14	0x3e480b8e	0.19535658
15	0xbe9ef0c7	-0.31043074
16	0x3e19b68b	0.15011041
17	0x3d912891	0.070878156

gru1.bias_hh_l4 f4 [18]
0	0xbdc1838f	-0.09448921
1	0xbe57a3d1	-0.21058585
2	0x3ea749f7	0.32673618
3	0x3dfeece1	0.12447525
4	0xbe157ec6	-0.14599141
5	0x3e082ae7	0.13297616
6	0x3e8301b7	0.25587246
7	0x3e8723e0	0.26394558
8	0xbd7d9df6	-0.06191822
9	0xbea2866a	-0.31743175
10	0xbe6d6c7b	-0.23185913
11	0x3e57bfb5	0.21069224
12	0xbd84096d	-0.0644711
13	0xbbacfc35	-0.005279089
14	0xbe242aac	-0.16031903
15	0x3d7769d7	0.06040367
16	0x3e93bfba	0.28857213
17	0x3997268b	0.0002882968

gru1.weight_ih_l5 f4 [18, 6]
0	0xbecfa701	-0.405571
1	0xbe70d8f0	-0.23520255
2	0xbcb08158	-0.02154605
3	0xbe84e24a	-0.25953895
4	0xbeadfc7e	-0.339817
5	0xbda93919	-0.08262844
6	0xbe32b9ab	-0.17453639
7	0xbe81c219	-0.25343397
8	0xbe40ffc0	-0.18847561
9	0xbe9ac145	-0.30225578
10	0x3eb7936a	0.35854656
11	0xbe1acb17	-0.15116535
12	0x3db262f9	0.08710284
13	0xbde39707	-0.111127906
14	0x3eca60c7	0.3952696
15	0xbd4221e1	-0.04739559
16	0x3e8f359c	0.27970588
17	0xbeb58c11	-0.35458425
18	0x3e9eb981	0.31000903
19	0xbe5bcb5c	-0.21464294
20	0xbdf56fa9	-0.11984188
21	0x3ec794de	0.38980764
22	0x3dd0e8bc	0.102006406
23	0xbd400706	-0.046881698
24	0x3eccc202	0.39991766
25	0x3e9263d6	0.28591794
26	0x3e580834	0.21096879
27	0x3e92b94e	0.28657
28	0x3e70e8ce	0.23526308
29	0x3c1b2abb	0.009470637
30	0xbda96ec9	-0.08273084
31	0x3e2e6108	0.17029202
32	0xbeccad28	-0.39975858
33	0x3e57a908	0.21060574
34	0x3ddef940	0.108873844
35	0xbec56cd6	-0.38559598
36	0xbea32d06	-0.31870288
37	0xbe48b186	-0.1959897
38	0x3e77c94e	0.24197885
39	0xbec888e0	-0.39166927
40	0xbd9de3b2	-0.07709445
41	0x3e63ce29	0.22246613
42	0xbe1fe46b	-0.15614478
43	0x3e0df8bc	0.13864416
44	0x3df7fe11	0.12109006
45	0x3ebf0557	0.3730876
46	0xbdc68047	-0.09692436
47	0xbd4d8279	-0.050173257
48	0x3e054895	0.13015969
49	0x3e6db11e	0.23212096
50	0x3de3f45a	0.11130591
51	0x3ebd58e9	0.36981896
52	0x3d1b43c2	0.037906416
53	0x3eb0173b	0.34392723
54	0x3ece147f	0.40250012
55	0xbea7de9e	-0.3278703
56	0x3dd74373	0.10510912
57	0x3e95f505	0.29288498
58	0x3d7b4284	0.06134273
59	0xbe143d28	-0.14476454
60	0x3d321a86	0.043482326
61	0x3e435772	0.19076326
62	0x3e6bdf37	0.23034368
63	0xbe3bccf1	-0.18339898
64	0x3da4290d	0.08015642
65	0xbd30a1dd	-0.043123115
66	0x3e2fb431	0.17158581
67	0xbe93909e	-0.28821272
68	0xbec7e645	-0.3904287
69	0x3d1b7c09	0.037960086
70	0xbe0de892	-0.1385825
71	0x3ec46f98	0.3836639
72	0xbe4ed230	-0.20197368
73	0xbe97d7b1	-0.29656747
74	0xbe5d9fc9	-0.21642984
75	0x3e46f039	0.19427575
76	0x3ececddf	0.40391442
77	0xbdd69104	-0.10476878
78	0x3e89154b	0.26774058
79	0xbe434567	-0.19069444
80	0x3ebf7004	0.3739015
81	0xbec0632f	-0.3757567
82	0xbc22de9a	-0.009940768
83	0x3e56998a	0.20957008
84	0x3e577726	0.21041545
85	0x3e5bdaae	0.21470138
86	0xbe68f16d	-0.22748347
87	0xbe85017f	-0.25977704
88	0x3e2d2536	0.16908726
89	0xbe427427	-0.18989621
90	0xbe37eb8e	-0.1796095
91	0x3ea1e0d6	0.3161685
92	0x3ea4076d	0.32036915
93	0x3e8899c8	0.26679826
94	0xbd6e51f0	-0.05818361
95	0xbb8d06c7	-0.0043037864
96	0xbe00a7b3	-0.12563972
97	0x3a6d1f39	0.0009045485
98	0x3ea53575	0.32267347
99	0x3e55d864	0.20883328
100	0x3dca528c	0.09879026
101	0x3e9c8785	0.30572143
102	0x3deaf7b6	0.11473028
103	0x3eac2279	0.3362005
104	0xbe4c6d47	-0.19963561
105	0xbe9a2d69	-0.3011277
106	0xbed04e84	-0.40684903
107	0x3e92bbfc	0.28659046

gru1.weight_hh_l5 f4 [18, 6]
0	0x3c963fa0	0.018340886
1	0xbd605c40	-0.054775476
2	0xbdd45db6	-0.103694364
3	0x3e55d7a9	0.20883049
4	0xbd659e24	-0.056059018
5	0x3e2310d8	0.15924394
6	0x3d0e231f	0.034701463
7	0xbe93f8a7	-0.28900644
8	0x3e418921	0.18899967
9	0xbc93ab97	-0.018026156
10	0xbe49d376	-0.19709572
11	0xbe06c79e	-0.13162085
12	0x3e45b060	0.19305563
13	0xbdbd5146	-0.09244017
14	0xbe02a570	-0.12758422
15	0x3e9c3fc6	0.30517405
16	0xbdf1f6b9	-0.11814637
17	0xbea4180d	-0.320496
18	0xbec4a55f	-0.38407418
19	0x3e15b71b	0.1462063
20	0xbea97ee5	-0.33104625
21	0x3d7603c0	0.06006217
22	0x3e8cd5d1	0.2750688
23	0xbe6ca75f	-0.23110722
24	0x3e3c6586	0.18398103
25	0xbdacf43d	-0.08445022
26	0xbeb2a814	-0.34893858
27	0xbe1cd9d0	-0.15317464
28	0xbe790335	-0.2431763
29	0x3e6d23a2	0.23158124
30	0xbe96069e	-0.29301924
31	0xbec1cf57	-0.378535
32	0x3e631bc4	0.2217856
33	0xbdd3f49d	-0.10349391
34	0xbe796135	-0.24353488
35	0x3da569c9	0.080768175
36	0xbdcf1cfe	-0.10112952
37	0x3e85d253	0.26137027
38	0xbe0fa9ee	-0.14029667
39	0xbd457766	-0.04820957
40	0xbeb6c1be	-0.3569469
41	0x3c06613f	0.008201896
42	0x3eba48aa	0.36383563
43	0x3ea4fb9e	0.3222322
44	0xbe2a4fdc	-0.16632026
45	0xbd508ed1	-0.05091745
46	0xbddbd99f	-0.10734867
47	0xbe9370bd	-0.2879695
48	0x3e97e65f	0.29667947
49	0x3eb19f9d	0.34692088
50	0xbe5d4dc1	-0.21611692
51	0x3e3a7501	0.18208696
52	0x3e088597	0.1333221
53	0x3c38137d	0.011235115
54	0x3ebce603	0.36894235
55	0xbe3d5a62	-0.1849151
56	0xbec291b6	-0.38001794
57	0xbe2ca766	-0.16860732
58	0x3ea8b50f	0.32950637
59	0xbdb7e6dd	-0.089795806
60	0xbeb09be6	-0.3449394
61	0x3e3119ea	0.17295042
62	0x3d108a67	0.03528824
63	0xbbfb2ab3	-0.0076650023
64	0x3e704054	0.23462039
65	0xbe85fcc8	-0.2616942
66	0xbe90a5fe	-0.28251642
67	0x3ebf2927	0.37336084
68	0xbeb2e266	-0.34938353
69	0xbe0b0033	-0.13574295
70	0xbe04456e	-0.1291711
71	0x3ed0752f	0.40714404
72	0xbdc142bf	-0.09436559
73	0xbdbfa290	-0.09357178
74	0xbe653594	-0.2238372
75	0xbe38a6ad	-0.18032332
76	0xbeb992b0	-0.36244726
77	0x3e5cead4	0.21573955
78	0xbe4b54c5	-0.19856556
79	0x3eb2a29b	0.34889683
80	0x3eb23c87	0.34811804
81	0xbd27b252	-0.040941544
82	0xbe1fcea4	-0.15606171
83	0x3dca5157	0.098787956
84	0x3c1e3f80	0.009658694
85	0xbe768fb4	-0.24078256
86	0xbe9082ff	-0.28224942
87	0xbe8d412b	-0.27588782
88	0xbe42c0ee	-0.1901891
89	0xbd8d0d69	-0.068873234
90	0x3eca1ee9	0.39476708
91	0xbeb18140	-0.34668922
92	0x3de964d3	0.11396184
93	0x3d2c9fcf	0.042144593
94	0xbe7680a3	-0.24072509
95	0xbe9ab9cd	-0.3021988
96	0x3e96bb7f	0.29439923
97	0xbea91438	-0.33023238
98	0x3ec3b8d5	0.38226953
99	0x3d5c525c	0.05378948
100	0xbe01b3ef	-0.12666295
101	0x3ec69ea5	0.3879291
102	0xbe161667	-0.14656983
103	0x3ed07aaa	0.40718585
104	0xbebedb3a	-0.37276632
105	0xbe6dae01	-0.23210908
106	0xbecf71cd	-0.4051651
107	0xbe765dab	-0.24059169

gru1.bias_ih_l5 f4 [18]
0	0x3dd54622	0.104137674
1	0x3de262eb	0.11054023
2	0x3eb1b641	0.3470936
3	0xbd9c3bb7	-0.07628577
4	0xbebf92e8	-0.37416768
5	0xbe475368	-0.1946541
6	0x3e91a8c0	0.2844906
7	0xbe04b408	-0.12959301
8	0xbe217437	-0.15766989
9	0xbdefc6e1	-0.11707855
10	0xbd89e16b	-0.06732448
11	0x3e3c0d43	0.18364434
12	0x3ed48689	0.41508892
13	0x3e0a39e3	0.13498645
14	0xbeee415d	-0.46534243
15	0x3e1d5557	0.15364586
16	0xbe8b0fd7	-0.27160522
17	0x3e39c05f	0.1813979

gru1.bias_hh_l5 f4 [18]
0	0x3e93d289	0.28871563
1	0x3e2ef630	0.170861
2	0xbecb2829	-0.39679077
3	0xbe10bffa	-0.14135733
4	0x3eb00c08	0.3438418
5	0xbec43ccd	-0.38327637
6	0x3ec44760	0.38335705
7	0x3e3b532a	0.18293443
8	0xbcb330d4	-0.021873869
9	0xbdee57ea	-0.11637862
10	0x3de39203	0.11111834
11	0xbec0a185	-0.3762323
12	0xbea4fdd6	-0.3222491
13	0xbdeda5ed	-0.116039135
14	0xbe07706c	-0.1322648
15	0xbe0ebc48	-0.13939011
16	0x3c8e0ec4	0.017341025
17	0xbd908a93	-0.07057681

gru1.weight_ih_l6 f4 [18, 6]
0	0x3eb31662	0.34978014
1	0xbe245280	-0.16047096
2	0x3b1a1c07	0.002351524
3	0x3e8dc304	0.27687848
4	0xbd1ae6dc	-0.03781782
5	0x3e248f67	0.16070329
6	0x3d161005	0.03663637
7	0x3e7bbc23	0.24583487
8	0x3dcf89a2	0.10133673
9	0xbe858893	-0.2608076
10	0xbeae548f	-0.34048888
11	0x3ccbc456	0.024873894
12	0xbd0a9bdb	-0.03384004
13	0x3eb2ae22	0.34898478
14	0x3eabc98a	0.335522
15	0xbe97431f	-0.29543397
16	0x3ddc22f5	0.10748855
17	0xbe475c4c	-0.19468802
18	0xbe3f7b84	-0.18699461
19	0xbebe246a	-0.37137157
20	0x3e43be6c	0.19115609
21	0x3e6bb659	0.23018779
22	0x3e73e1df	0.23816632
23	0x3e4eb159	0.2018484
24	0xbe4a6c55	-0.19767888
25	0x3e8422d5	0.25807825
26	0x3e26e89f	0.16299675
27	0x3ec4000d	0.3828129
28	0xbe951da8	-0.29124188
29	0x3e8dea6c	0.27717912
30	0x3e6fb487	0.2340871
31	0x3eb1148f	0.34585997
32	0x3e10dd34	0.14146882
33	0x3ec04e86	0.3755991
34	0xbda0ec2a	-0.07857545
35	0xbec98ee7	-0.39366838
36	0x3ec6fede	0.38866323
37	0x3cbab59a	0.022791672
38	0x3ebf7c7a	0.37399656
39	0xbdee02b3	-0.116216086
40	0xbc04aa1d	-0.008097199
41	0x3eac036f	0.3359637
42	0x3e908c7f	0.2823219
43	0x3eb1f32e	0.34755844
44	0xbdb92f88	-0.09042269
45	0xbea6b38f	-0.32558867
46	0xbe495fe4	-0.19665486
47	0xbd010f12	-0.031508513
48	0x3ea166c3	0.31523713
49	0x3e2a145b	0.16609327
50	0xbe882ab1	-0.2659507
51	0xbeaba1e9	-0.33521965
52	0xbea192cc	-0.3155731
53	0x3e85dbd9	0.26144293
54	0xbe8b99e1	-0.27265838
55	0xbead732b	-0.3387693
56	0xbd02236d	-0.031772066
57	0xbec10dc4	-0.37705815
58	0x3d92e0fb	0.07171818
59	0x3dae7e3e	0.085201725
60	0x3d9e159d	0.07718966
61	0x3deb9521	0.115030535
62	0xbeacceb4	-0.33751452
63	0x3e5e44c7	0.21705924
64	0x3d971840	0.07377672
65	0xbdfa8847	-0.12233024
66	0x3e1821a0	0.14856577
67	0x3e21b671	0.15792252
68	0x3eca5ac8	0.39522386
69	0xbdc8a307	-0.0979672
70	0x3dbc75ef	0.092021815
71	0x3eb0f6e9	0.34563377
72	0xbed6b875	-0.41937605
73	0xbe32c0da	-0.1745638
74	0x3eed08c7	0.4629576
75	0xbe1a4b65	-0.15067823
76	0x3ecea1bb	0.40357766
77	0xbdad31b8	-0.08456749
78	0xbe28a5fa	-0.16469565
79	0xbe823f89	-0.25439098
80	0xbd4bf6a6	-0.04979577
81	0x3eaef034	0.34167635
82	0xbe2bdbcf	-0.16783069
83	0x3ed426c2	0.4143582
84	0xbec52faf	-0.38512942
85	0xbdcc2119	-0.099672504
86	0x3eec658c	0.46171224
87	0x3eb60e93	0.35557994
88	0x3e6c6bca	0.23087993
89	0x3e935425	0.28775135
90	0x3e1302ab	0.14356486
91	0x3e8d2c00	0.27572632
92	0x3cf1be55	0.029509703
93	0xbe840d80	-0.2579155
94	0xbe53e242	-0.2069178
95	0x3e49c1bf	0.19702815
96	0xbed644ee	-0.41849464
97	0x3e6979c8	0.22800362
98	0x3ea6ac59	0.32553366
99	0x3e457c41	0.1928568
100	0x3d7fe0ef	0.062470373
101	0xbe54f366	-0.20795974
102	0x3eca9030	0.3956313
103	0x3da48c65	0.08034591
104	0xbe39f66a	-0.18160406
105	0x3e6bb128	0.23016798
106	0x3e00e68c	0.12587947
107	0x3e79ed2c	0.2440688

gru1.weight_hh_l6 f4 [18, 6]
0	0xbecf927b	-0.40541443
1	0xbe8d429e	-0.27589887
2	0x3e773a9f	0.24143456
3	0x3eb53dfa	0.35398847
4	0xbe428ad6	-0.18998274
5	0xbe963088	-0.293339
6	0xbe76c41d	-0.24098249
7	0xbdb3fa44	-0.08787969
8	0x3dd59542	0.10428859
9	0x3e733168	0.23749316
10	0xbdc0186b	-0.09379657
11	0x3e0de133	0.13855438
12	0xbec8573a	-0.3912905
13	0xbeaf6e1a	-0.34263688
14	0x3df332b5	0.11874906
15	0xbe9a6f93	-0.3016325
16	0xbe86eed0	-0.26354074
17	0xbe99bcd5	-0.3002688
18	0x3e9aa100	0.30200958
19	0x3eb1e963	0.34748372
20	0xbe83f6f3	-0.25774345
21	0xbd78566b	-0.06062929
22	0x3e89d4ea	0.26920253
23	0x3e7fafba	0.24969378
24	0x3e97c75a	0.2964428
25	0x3c0cc138	0.008590989
26	0xbc7d71e2	-0.015469046
27	0x3e9641d3	0.29347095
28	0x3e175dff	0.1478195
29	0x3e1270d4	0.14300853
30	0x3e8c1e7d	0.2736701
31	0x3dec6eaa	0.11544545
32	0xbe5716c2	-0.21004775
33	0x3e2c9722	0.16854528
34	0x3d1537f2	0.036430307
35	0x3eb71bdd	0.35763445
36	0x3ea61510	0.32437944
37	0xbe822e92	-0.25426155
38	0xbb118306	-0.002220334
39	0x3e7b977f	0.2456951
40	0xbd9cb147	-0.076510005
41	0x3dc251e6	0.09488277
42	0xbde665f4	-0.11249915
43	0xbe6fc5a7	-0.23415242
44	0xbd52233d	-0.051303137
45	0x3ea3cd8d	0.3199276
46	0x3ec831a4	0.39100373
47	0x3eb731c1	0.35780147
48	0x3e987b2e	0.2978148
49	0xbe37ebd0	-0.17961049
50	0x3e4042ed	0.1877553
51	0x3e5ba92b	0.21451251
52	0x3e44731a	0.19184533
53	0xbdfd8b3f	-0.12380075
54	0x3e234710	0.15945077
55	0xbe04e7b5	-0.12979014
56	0xbeb1c613	-0.3472143
57	0x3d71c4b0	0.059025466
58	0xbd8a2131	-0.06744612
59	0x3e70e979	0.23526563
60	0x3e2161fd	0.15760036
61	0xbe426002	-0.18981937
62	0xbebecd83	-0.37266168
63	0xbdb90179	-0.09033484
64	0xbea44150	-0.3208108
65	0x3e56cab9	0.2097577
66	0x3e8685e3	0.26274022
67	0x3cd90100	0.026489735
68	0x3ec05c28	0.3757031
69	0x3d8d87c8	0.06910664
70	0xbc5790f7	-0.013157121
71	0x3ca88450	0.020570904
72	0xbea2b6aa	-0.31779987
73	0x3e8cda07	0.27510092
74	0x3e8ac6e9	0.2710488
75	0x3e8fd406	0.2809145
76	0xbe2dc877	-0.16971003
77	0x3dd8d664	0.10587767
78	0xbddae705	-0.10688595
79	0xbe63a98a	-0.22232643
80	0xbec5ee60	-0.38658428
81	0x3ead0ac0	0.33797264
82	0xbdd900b2	-0.10595836
83	0x3e8a3c0f	0.26998946
84	0x3ec3171d	0.38103572
85	0xbdfc9526	-0.12333135
86	0xbe97ff55	-0.2968699
87	0xbe8fc93b	-0.28083214
88	0x3eb2060f	0.34770247
89	0xbe795456	-0.24348578
90	0x3d67a548	0.05655411
91	0x3e0b0727	0.13576947
92	0x3e2ba344	0.167615
93	0xbdebfb01	-0.115224846
94	0xba8215a1	-0.0009924659
95	0xb9657c90	-0.00021885545
96	0xbeb65927	-0.35614893
97	0x3ea283a1	0.3174105
98	0x3dc5550e	0.096353635
99	0x3eb0921d	0.34486476
100	0x3da16293	0.0788013
101	0xbd0b552a	-0.034016766
102	0xbe2b0581	-0.16701318
103	0xbc5c0aeb	-0.013430337
104	0x3dc0126c	0.09378514
105	0x3ecf94f6	0.40543336
106	0xbe97aad8	-0.2962253
107	0x3e36bed5	0.17846234

gru1.bias_ih_l6 f4 [18]
0	0x3d78ddee	0.060758524
1	0x3d4c0873	0.049812745
2	0x3d248cdb	0.040173393
3	0xbe6d2d44	-0.23161799
4	0x3e0801a1	0.13281871
5	0x3dffcd0c	0.124902815
6	0xbcf7fa0d	-0.0302706
7	0x3e86d1aa	0.26331836
8	0x3d4ab19c	0.049485788
9	0xbe3ff3cc	-0.18745345
10	0xbbe98544	-0.007126482
11	0xbea3f7ef	-0.32025096
12	0xbf22dd5c	-0.6361902
13	0x3e9baab9	0.3040369
14	0xbdb19b18	-0.0867216
15	0xbe4584de	-0.19288966
16	0x3cb6542e	0.022256937
17	0x3db24d63	0.087061666

gru1.bias_hh_l6 f4 [18]
0	0x3ccad0d5	0.024757782
1	0x3d0027be	0.0312879
2	0xbed47ae5	-0.4150001
3	0xbc815277	-0.015786393
4	0x3eb78c8a	0.3584941
5	0x3e8dc43d	0.2768878
6	0xbae8b1c4	-0.0017753174
7	0x3eaa5cdb	0.33273968
8	0xbe6565df	-0.22402142
9	0x3e2a6fbe	0.16644189
10	0xbeb17117	-0.34656593
11	0x3c805df7	0.015669806
12	0x3defa370	0.11701095
13	0x3e4ef952	0.20212296
14	0x3db670bd	0.08908222
15	0x3e0b25c6	0.13588628
16	0xbea68f75	-0.32531324
17	0x3ea6aee8	0.32555318

gru1.weight_ih_l7 f4 [18, 6]
0	0x3e8232f4	0.254295
1	0x3e96c18e	0.29444546
2	0xbebde8d1	-0.37091687
3	0xbdf3ed7f	-0.11910533
4	0xbe23871a	-0.15969506
5	0x3e960672	0.29301792
6	0x3e600e42	0.21880439
7	0xbeb7ab71	-0.35872987
8	0xbd10028b	-0.035158675
9	0x3e45b417	0.1930698
10	0xbeccfc0b	-0.40036044
11	0x3e4d1698	0.2002815
12	0xbed2ce66	-0.41173095
13	0x3ebac082	0.36474997
14	0x3c41e6b6	0.011834791
15	0xbe6410cd	-0.22272034
16	0xbe267754	-0.16256458
17	0x3e075e6f	0.13219617
18	0xbc9d284f	-0.01918426
19	0xbde1ed93	-0.11031642
20	0xbeccbe2a	-0.39988834
21	0x3d98f73a	0.0746903
22	0x3e2bf6af	0.16793321
23	0xbd9e7179	-0.07736487
24	0xbe0eab5f	-0.1393256
25	0x3ea66248	0.32496858
26	0xbd0eead9	-0.034891937
27	0x3e8172b8	0.25282836
28	0x3baf510d	0.005350238
29	0x3e27334b	0.1632816
30	0xbe997da2	-0.29978663
31	0xbe124b66	-0.14286575
32	0x3d995666	0.07487182
33	0xbe52abc0	-0.2057333
34	0x3e60bb0e	0.21946356
35	0x3e59980c	0.21249408
36	0xbeda45d4	-0.426314
37	0x3e249a7f	0.1607456
38	0x3e5ab784	0.21359068
39	0xbe7f5beb	-0.24937408
40	0xbdf1164a	-0.117718294
41	0x3ecaad95	0.39585558
42	0xbd778a57	-0.060434666
43	0x3e1aaf97	0.15106045
44	0xbe8736ea	-0.26409084
45	0xbc42eba4	-0.011897001
46	0x3db56f96	0.08859174
47	0x3e1304b1	0.14357258
48	0xbcf70029	-0.030151444
49	0x3df94d21	0.12172914
50	0xbe172eaf	-0.14763902
51	0x3eacecf9	0.33774546
52	0x3e82149a	0.25406343
53	0x3ea67689	0.3251231
54	0xba8debcf	-0.0010827723
55	0x3dae3836	0.08506815
56	0xbe8b1abf	-0.27168843
57	0xbc9be872	-0.019031737
58	0x3ec79a79	0.3898504
59	0xbe33756d	-0.17525263
60	0xbeb6a9fa	-0.35676557
61	0xbec5ca61	-0.38630965
62	0xbe26b6c3	-0.16280656
63	0x3d1e933f	0.038714644
64	0x3d36953b	0.04457591
65	0xbe4526a3	-0.1925302
66	0x3e88f465	0.26748958
67	0xbea39b29	-0.31954315
68	0xbe91823e	-0.2841968
69	0xbeb11cc0	-0.34592247
70	0x3e9fa2d1	0.31178907
71	0xbe22cd92	-0.15898731
72	0xbe3797a2	-0.17928937
73	0xbe135637	-0.14388357
74	0xbe0cc7d2	-0.137481
75	0xbda4ce36	-0.08047144
76	0xbe20e795	-0.15713342
77	0x3dd661f8	0.10467905
78	0xbe95ddb5	-0.29270712
79	0x3dac59bb	0.08415552
80	0xbe15c801	-0.14627077
81	0xbe63349e	-0.2218804
82	0x3e3780ee	0.17920277
83	0x3ea754f2	0.32681996
84	0xbee21a92	-0.44160897
85	0xbd3ed43e	-0.04658913
86	0x3ecc57fd	0.3991088
87	0x3ec78b53	0.38973483
88	0xbe5cff42	-0.21581748
89	0x3eb50d28	0.353616
90	0xbec83002	-0.39099127
91	0xbeb87b20	-0.36031437
92	0xbdd7ca64	-0.1053665
93	0xbeb6e054	-0.35718024
94	0xbead90cf	-0.33899543
95	0xbb8c14a1	-0.00427492
96	0xbe835860	-0.25653362
97	0x3ef2dee9	0.47435692
98	0x3e12e295	0.14344247
99	0x3eb310c9	0.34973744
100	0x3eb6d816	0.35711735
101	0x3ea7d5c5	0.3278028
102	0xbeb495ed	-0.35270634
103	0x3ee4e95f	0.44709298
104	0xbdaaddfd	-0.08343122
105	0x3d007698	0.0313631
106	0x3c80a2b3	0.015702581
107	0x3d9f06a1	0.07764936

gru1.weight_hh_l7 f4 [18, 6]
0	0xbd6c4b12	-0.05768878
1	0xbdc0d4bf	-0.09415578
2	0x3d8df939	0.06932301
3	0xbec9ea43	-0.3943654
4	0xbe2577b7	-0.16158949
5	0x3e93154c	0.28727186
6	0x3eb3af64	0.3509475
7	0xbe32060c	-0.17385119
8	0xbdfdf4f5	-0.124002375
9	0x3e61bfb2	0.22045782
10	0x3eb07375	0.34463087
11	0x3e741fbf	0.23840235
12	0x3ec19bbd	0.3781413
13	0x3e9eb818	0.30999827
14	0xbe90d569	-0.2828782
15	0x3e437958	0.19089258
16	0xbc3fba44	-0.011702124
17	0x3de043ef	0.10950457
18	0xbeb7864e	-0.35844654
19	0xbea4f89b	-0.3222092
20	0x3e947ec1	0.29002956
21	0xbe2d1d5b	-0.1690573
22	0x3e911c21	0.28341773
23	0xbe949b98	-0.2902496
24	0xbe4b08f3	-0.19827633
25	0xbec08a4d	-0.37605515
26	0xbe97e458	-0.296664
27	0xbea7519c	-0.3267945
28	0xbd8181b8	-0.0632357
29	0xbd9277a4	-0.07151726
30	0xbb11dcd7	-0.0022256875
31	0xbdf78a24	-0.12086895
32	0x3e8b7f96	0.27245778
33	0xbd86f11b	-0.06588956
34	0x3e1d6f65	0.15374525
35	0x3d900410	0.07032025
36	0x3d90246b	0.07038196
37	0x3ebaf2da	0.36513406
38	0xbe9519d5	-0.2912127
39	0x3ba84f58	0.0051364116
40	0xbe09b710	-0.13448739
41	0x3e2e5869	0.17025913
42	0x3c08e50e	0.008355392
43	0x3e4de59d	0.20107122
44	0x3e8512db	0.25990948
45	0xbea838b9	-0.32855776
46	0x3ce0159f	0.02735406
47	0x3e773990	0.24143052
48	0xbebff54d	-0.37491837
49	0x3e7497f7	0.23886095
50	0x3ca30e10	0.019904166
51	0xbeb51724	-0.35369217
52	0x3ec7ded0	0.3903718
53	0x3e1999e4	0.15000111
54	0xbdef3b72	-0.1168126
55	0x3e4cd652	0.20003632
56	0x3e678f91	0.2261336
57	0x3ed03b1d	0.406701
58	0xbe178198	-0.1479553
59	0x3e0001bf	0.12500666
60	0xbe999738	-0.29998183
61	0x3d2d15a3	0.042256963
62	0xbdce1650	-0.100628495
63	0x3d53f70a	0.051749267
64	0xbc7b7cc2	-0.015349569
65	0xbe94c6ff	-0.29058072
66	0x3e7ab7f5	0.24484237
67	0xbe8ae3d5	-0.27126947
68	0xbd3caaa2	-0.046061166
69	0x3e3c1765	0.183683
70	0xbec4905e	-0.38391393
71	0x3ea760d0	0.3269105
72	0x3ccc88e8	0.024967626
73	0xbe9c577a	-0.3053549
74	0x3e80a19a	0.25123292
75	0x3e8d464c	0.27592695
76	0xbeb7f9b3	-0.35932693
77	0x3eb99e25	0.36253467
78	0xbe9d0675	-0.3066899
79	0xbea37409	-0.31924465
80	0x3c7046c6	0.014665311
81	0x3e315eb4	0.17321283
82	0xbe830e9b	-0.2559708
83	0xbe6581a8	-0.22412741
84	0xbe1b106b	-0.15142982
85	0xbe8823d7	-0.26589844
86	0xbcc7b1fa	-0.024376858
87	0xbd82e6ef	-0.06391703
88	0xbe2ff2fe	-0.17182538
89	0xbe8be0d0	-0.27319956
90	0xbcd09297	-0.025460524
91	0x3dac31a2	0.08407904
92	0xbe4cf807	-0.2001649
93	0x3c82274a	0.015887875
94	0x3e02fddf	0.12792157
95	0xbe46bc2f	-0.19407724
96	0x3ec51ba6	0.38497657
97	0x3e835173	0.25648078
98	0x3e5f9779	0.21835126
99	0xbe9217c3	-0.28533754
100	0xbdcdd00b	-0.10049447
101	0x3e2918f7	0.1651343
102	0xbdd655b8	-0.10465568
103	0xbe25a05a	-0.1617445
104	0xbd732338	-0.05935976
105	0xbe50f369	-0.20405354
106	0xbd840065	-0.06445388
107	0xbe8f9787	-0.28045294
